app/src/main/assets/mnist.tflite (tflite, 114912 bytes, 6 tensors)

sequential_1/conv2d_2/BiasAdd/ReadVariableOp/resource f4 [32]
000000 32 83 94 3c c3 74 91 bb 1e 46 79 3c 06 82 a4 ba
       0.018128965 -0.004438968 0.015214471 -0.0012550957
000010 91 fb 83 bb dc e6 30 bc af 59 56 3b c4 fd 33 bc
       -0.004027792 -0.010797229 0.0032707264 -0.010985795
000020 a2 e7 61 3c 6e 01 69 bc 7d 1c 06 3e 3b a0 54 bd
       0.013788136 -0.014221532 0.13096805 -0.05191062
000030 37 78 d0 bb dc e0 63 3d 2b 4f 65 bc 3c 52 15 bb
       -0.006361987 0.055634364 -0.013995926 -0.0022784611
000040 07 9b d5 bb f3 ff e4 bb 41 c6 8d 3d c3 ab 9c bb
       -0.006518725 -0.0069885193 0.069225796 -0.004781218
000050 31 01 39 bb 66 03 8e bb c6 b2 05 bc 2d 18 05 bc
       -0.002822947 -0.004333901 -0.008160299 -0.00812344
000060 20 ef 89 bb 2f cf 4f bb 0b c5 3b bc dd 90 af 3c
       -0.004209414 -0.0031709184 -0.011460553 0.02143138
000070 aa 51 8a bc e0 b4 0f bd e4 0f cf bb 0b 99 15 3d
       -0.016884644 -0.035084605 -0.006319033 0.036522906

sequential_1/conv2d_3/BiasAdd/ReadVariableOp/resource f4 [64]
000000 9f d5 32 bc 95 13 1f bd c3 79 35 bc 54 49 59 bd
       -0.010915189 -0.038837034 -0.011076394 -0.053048447
000010 e2 3f 85 bd 13 73 0b bd 07 23 e2 ba 57 1f 73 3c
       -0.06506325 -0.03404529 -0.0017252871 0.014839015
000020 c2 c3 0a 3d fd 27 07 3d 87 39 ec bc 77 6a d6 bc
       0.033878095 0.03299712 -0.028836025 -0.026173813
000030 03 ea 09 bd 07 ee c8 bb 43 f1 39 3c 27 42 c8 bc
       -0.033670437 -0.0061318907 0.011349025 -0.024445606
000040 ef 2c c9 3c cd 59 9f bc 8d 23 5f bd 46 11 ad bc
       0.024557559 -0.019452 -0.054477263 -0.0211264
000050 b4 ba 6f bc 72 fa 12 3d 6b 6b 7b bd 60 d1 e0 bc
       -0.014631916 0.035883375 -0.06138174 -0.027443588
000060 fa de 77 3c ca f5 b7 bd 4f 9b 83 3b b1 c3 92 bc
       0.015128845 -0.089824274 0.004016317 -0.017915579
000070 8e bb 35 3d e8 10 a7 bc 55 37 49 bc b2 b8 7d bd
       0.04436832 -0.020393804 -0.012281259 -0.061943717
000080 ca d6 09 bd 90 ec dd bc b6 9a 45 bd e3 b6 a8 bb
       -0.033652104 -0.02709034 -0.048243247 -0.005148755
000090 3d 93 77 bd 0a 5e d2 bc a5 fe ce bc 14 8a 55 3d
       -0.06044315 -0.025679607 -0.025267908 0.052133635
0000a0 f7 e4 41 bc 4c 44 2f ba e6 0b 45 bd 69 08 9d bc
       -0.011834375 -0.0006685897 -0.04810705 -0.01916905
0000b0 81 5e 00 3c c5 98 60 bd 22 6c 40 bc e2 ee e4 bc
       0.0078350315 -0.054833192 -0.011744531 -0.02794594
0000c0 62 59 87 3d 07 bd 38 3d d8 33 7b bd 09 65 78 bd
       0.06608845 0.045102146 -0.06132874 -0.06064323
0000d0 78 84 8b 3d c6 48 18 3d d9 35 1e bb c4 23 1f 3d
       0.06812376 0.037178777 -0.0024140982 0.038852468
0000e0 81 9d 9f bd 69 87 88 bc 47 10 38 3d 53 97 39 bd
       -0.07793713 -0.016666131 0.0449374 -0.04531033
0000f0 c4 1b 5c 3c 61 aa 09 bc 91 a1 9e bd 7d 45 10 bd
       0.013434354 -0.008402438 -0.0774566 -0.03522252

sequential_1/dense_1/BiasAdd/ReadVariableOp/resource f4 [10]
000000 ed 69 b8 3c 0b 0f 76 3e d7 96 00 be bc 16 5d bd
       0.022511447 0.24029176 -0.12557541 -0.05397676
000010 7d 18 93 bc 10 74 3b bd f5 fc f9 3c 7e af cf 3b
       -0.017956013 -0.045764983 0.030516127 0.006338059
000020 f9 f6 c7 bd 7a da df 3d
       -0.09763903 0.10930343

sequential_1/dense_1/MatMul i1 [10, 9216] scale=0.0068485653 zero_point=0
000000 00 f0 02 e8 11 ec 0c bd bf fc d9 00 06 fa 01 d5
       0.0 -0.109577045 0.013697131 -0.16436556 0.11642561 -0.13697131 0.08218278 -0.45885387 -0.44515675 -0.027394261 -0.26709405 0.0 0.04109139 -0.04109139 0.0068485653 -0.2944883
000010 01 fb cb f9 ff f6 fe f9 e1 0b da ef ef 0d dc fb
       0.0068485653 -0.034242827 -0.36297396 -0.047939956 -0.0068485653 -0.068485655 -0.013697131 -0.047939956 -0.21230553 0.07533422 -0.26024547 -0.11642561 -0.11642561 0.089031346 -0.24654835 -0.034242827
000020 e7 12 08 f2 08 fe d1 fe e2 04 fb f9 01 fa f3 cf
       -0.17121413 0.12327418 0.054788522 -0.09587991 0.054788522 -0.013697131 -0.32188258 -0.013697131 -0.20545696 0.027394261 -0.034242827 -0.047939956 0.0068485653 -0.04109139 -0.089031346 -0.3355797
000030 f3 01 20 01 f2 e6 eb eb 01 03 fb f8 e7 f6 07 e1
       -0.089031346 0.0068485653 0.21915409 0.0068485653 -0.09587991 -0.17806269 -0.14381987 -0.14381987 0.0068485653 0.020545695 -0.034242827 -0.054788522 -0.17121413 -0.068485655 0.047939956 -0.21230553
000040 fd 09 ff ee 0f ec 02 bf d2 f5 da f9 14 f8 0b f8
       -0.020545695 0.06163709 -0.0068485653 -0.12327418 0.10272848 -0.13697131 0.013697131 -0.44515675 -0.315034 -0.07533422 -0.26024547 -0.047939956 0.13697131 -0.054788522 0.07533422 -0.054788522
000050 00 fd df f2 00 eb 0f fe ca 0e e2 05 ed 02 f2 e7
       0.0 -0.020545695 -0.22600265 -0.09587991 0.0 -0.14381987 0.10272848 -0.013697131 -0.36982253 0.09587991 -0.20545696 0.034242827 -0.13012274 0.013697131 -0.09587991 -0.17121413
000060 ed 1b ff fa 05 06 c5 fc ef 0d 05 fe 06 eb f4 cf
       -0.13012274 0.18491127 -0.0068485653 -0.04109139 0.034242827 0.04109139 -0.40406534 -0.027394261 -0.11642561 0.089031346 0.034242827 -0.013697131 0.04109139 -0.14381987 -0.08218278 -0.3355797
000070 fd 04 10 e6 fa e5 f8 fd fa fb f6 f5 e5 06 12 ef
       -0.020545695 0.027394261 0.109577045 -0.17806269 -0.04109139 -0.18491127 -0.054788522 -0.020545695 -0.04109139 -0.034242827 -0.068485655 -0.07533422 -0.18491127 0.04109139 0.12327418 -0.11642561
000080 fb f8 fe 03 04 f2 f6 cb de 02 e9 f9 04 00 11 f7
       -0.034242827 -0.054788522 -0.013697131 0.020545695 0.027394261 -0.09587991 -0.068485655 -0.36297396 -0.23285122 0.013697131 -0.157517 -0.047939956 0.027394261 0.0 0.11642561 -0.06163709
000090 09 ff d8 fb fd ed 1a ff da fd df 12 f8 0c d7 f5
       0.06163709 -0.0068485653 -0.27394262 -0.034242827 -0.020545695 -0.13012274 0.17806269 -0.0068485653 -0.26024547 -0.020545695 -0.22600265 0.12327418 -0.054788522 0.08218278 -0.28079116 -0.07533422
0000a0 e0 1f 0f fc 0d 01 cf 08 ef 0b 20 ff ee e3 f3 df
       -0.21915409 0.21230553 0.10272848 -0.027394261 0.089031346 0.0068485653 -0.3355797 0.054788522 -0.11642561 0.07533422 0.21915409 -0.0068485653 -0.12327418 -0.1986084 -0.089031346 -0.22600265
0000b0 05 0e 0c e8 f0 e0 03 fd fa fc f9 fd f8 fb 08 fc
       0.034242827 0.09587991 0.08218278 -0.16436556 -0.109577045 -0.21915409 0.020545695 -0.020545695 -0.04109139 -0.027394261 -0.047939956 -0.020545695 -0.054788522 -0.034242827 0.054788522 -0.027394261
0000c0 02 f0 00 01 0b 01 0b d2 e0 f7 ee 01 f8 fb fe f2
       0.013697131 -0.109577045 0.0 0.0068485653 0.07533422 0.0068485653 0.07533422 -0.315034 -0.21915409 -0.06163709 -0.12327418 0.0068485653 -0.054788522 -0.034242827 -0.013697131 -0.09587991
0000d0 e4 01 db 00 fb e3 10 fb f2 09 e4 13 ed 16 e1 df
       -0.19175982 0.0068485653 -0.25339693 0.0 -0.034242827 -0.1986084 0.109577045 -0.034242827 -0.09587991 0.06163709 -0.19175982 0.13012274 -0.13012274 0.15066844 -0.21230553 -0.22600265
0000e0 ea 1e 01 f5 00 f8 d7 0d e6 03 0e fe e7 e6 df dc
       -0.15066844 0.20545696 0.0068485653 -0.07533422 0.0 -0.054788522 -0.28079116 0.089031346 -0.17806269 0.020545695 0.09587991 -0.013697131 -0.17121413 -0.17806269 -0.22600265 -0.24654835
0000f0 02 05 11 f1 00 d5 ff fb f5 ff 02 08 0b 04 05 04
       0.013697131 0.034242827 0.11642561 -0.10272848 0.0 -0.2944883 -0.0068485653 -0.034242827 -0.07533422 -0.0068485653 0.013697131 0.054788522 0.07533422 0.027394261 0.034242827 0.027394261

sequential_1/conv2d_2/Conv2D f4 [32, 3, 3, 1]
000000 36 d9 41 bf 85 96 c0 be 37 d9 1f 3d 20 d8 85 be
       -0.7572206 -0.37614837 0.03902551 -0.26141453
000010 86 ca 2b bd bd a6 b5 3e f8 c2 a5 be 60 12 78 3e
       -0.04194119 0.35478774 -0.32375312 0.2422576
000020 d5 b4 ab 3e ea 99 98 3d 67 b0 56 3e e5 c3 b2 be
       0.335364 0.07451232 0.2096573 -0.3491508
000030 e9 ea 4f 3e e7 73 2f 3e 57 dc cd be 38 8e f6 3d
       0.20304455 0.17134057 -0.40207168 0.12038845
000040 81 7c 5c 3e 0a 3e 00 be 95 45 88 3e 4d 9e cd bd
       0.2153187 -0.12523666 0.26615587 -0.10039959
000050 73 65 da be 2d 9e 89 3e 1e a7 73 bd eb 7e 38 be
       -0.42655525 0.2687849 -0.059485547 -0.18017165
000060 7e e0 1d 3e 0f db 27 3e dd f7 b8 be 94 be 79 bd
       0.15417668 0.16392158 -0.36126605 -0.060972765
000070 c9 d3 b4 be 2e e5 a1 be 1a 72 93 3e 28 68 7a 3e
       -0.3531783 -0.31620163 0.2879799 0.24453795
000080 ac 2c 3e 3e b4 75 77 be dc 4f 91 3d 6b f7 92 3e
       0.18571728 -0.24165994 0.0709531 0.2870439
000090 ab b9 6a 3e 8a 0b 41 be f7 fe 3e be 94 a0 ee 3d
       0.22922389 -0.18852058 -0.18651949 0.116517216
0000a0 a6 27 54 be 99 b2 85 be 47 6a c1 3d a2 e1 4c 3e
       -0.2071825 -0.26112822 0.09444099 0.20007947
0000b0 41 9b 80 3e e0 0b e3 bd 92 53 aa 3e 2a 6e 90 3e
       0.2511845 -0.11086249 0.33266884 0.28209049
0000c0 9b f3 63 3e 1d 8d 36 3e d5 ee 10 be c7 43 be 3a
       0.22260897 0.17827268 -0.14153607 0.0014516049
0000d0 b7 dd 52 be 34 a6 f9 be 1d 8d a1 be 12 a3 cf be
       -0.2059239 -0.48759615 -0.31552973 -0.405541
0000e0 47 a6 76 be 55 d5 3e 3e e6 00 c3 bd ba 97 e9 be
       -0.24086867 0.18636067 -0.09521656 -0.4562357
0000f0 eb 7f f0 3e 03 29 1d 3e 0e c7 35 3d 6e 03 00 3e
       0.46972594 0.15347676 0.044379286 0.12501308
000100 6d 87 aa 3e 4c c2 4d 3e 1e 2e 12 be 7b 44 26 3e
       0.33306447 0.2009365 -0.14275405 0.1623706
000110 c7 05 12 3d 5b d3 1c bf 08 13 3e be c1 6a b9 3c
       0.03565004 -0.6126 -0.18561947 0.022633912
000120 23 37 95 3e ca 35 e8 bd 4b 1f 11 be ec fe 62 3e
       0.29143628 -0.113383844 -0.14172094 0.22167557
000130 ce b0 cb bd d4 d8 b8 be da 89 88 3e 6f 83 69 be
       -0.09945832 -0.36102927 0.26667672 -0.22804044
000140 5d ea 14 bf e0 e4 f5 bd cd 68 4f 3e 26 a8 6c 3e
       -0.5817011 -0.12006545 0.20254822 0.23111019
000150 89 bc 8b be 87 0d e7 3d 59 bd 35 3e e4 db eb be
       -0.27292278 0.11281877 0.17748012 -0.460662
000160 4c 29 2f be 22 94 8d 3e 1d ec 58 3e 34 d5 30 bd
       -0.17105597 0.2765208 0.2118382 -0.043172076
000170 4d bd a9 be 77 e2 54 3c 3e 6d 1a 3e 7a 34 c0 be
       -0.33152238 0.012993447 0.15080735 -0.37540036
000180 31 e7 fb bd 85 23 b8 be 81 e8 26 bf 75 cb 53 3e
       -0.12299956 -0.359646 -0.6519852 0.20683081
000190 59 3e d5 bd 06 93 01 3e e4 c0 d3 bd 95 d2 32 be
       -0.104122825 0.12653741 -0.10339525 -0.17463143
0001a0 a3 78 e2 3d 78 35 63 3e 0e 42 37 3d 26 12 09 3e
       0.11058166 0.22188365 0.04474073 0.1338583
0001b0 96 28 de 3a 76 88 e8 bd 49 05 d9 be 09 5d 16 3e
       0.0016949351 -0.11354153 -0.42386845 0.14683928
0001c0 79 f7 e8 3d fd ae 3a be ca 3e 21 3e bb 0a 16 3e
       0.11375327 -0.18230815 0.15746608 0.14652531
0001d0 4d 5a 73 3e 69 ef 23 bf d3 4b be be 84 b0 8c be
       0.23764916 -0.64037186 -0.37167224 -0.2747842
0001e0 84 2c 4c be 97 a5 a1 3d b3 58 54 3d b1 4b 2c 3e
       -0.19938856 0.07892912 0.051842403 0.16825749
0001f0 9d 99 7d 3e fd 41 0e 3e c6 87 81 3d a6 51 51 3d
       0.2476563 0.1389236 0.06324725 0.051103257
000200 a5 47 c2 3e 5b 65 f9 bd 77 64 a2 3c fd be 7d 3e
       0.37945285 -0.12177535 0.019823296 0.24779887
000210 1b ee 0a bf 7f bb 92 be 5b 52 79 3e fa ba 4e be
       -0.5426957 -0.28658673 0.24347822 -0.20188513
000220 38 f1 36 be d4 b1 9f be be c6 10 3e 22 7f 9e 3c
       -0.17865455 -0.3119036 0.14138314 0.019347731
000230 65 ef ab bd ac b9 36 3e 87 f2 77 3d b0 0a 9f 3e
       -0.0839527 0.17844266 0.060534026 0.3106284
000240 ae d0 8e be 67 18 61 be e5 c8 fc bd 2a ce 77 be
       -0.27893585 -0.21981965 -0.12343005 -0.24199739
000250 13 1f db bd 10 58 40 3e 0b 85 1e 3e b3 3c 6f 3e
       -0.10699286 0.18783593 0.1548044 0.23362999
000260 89 2a 6b 3e bd 60 f4 3d 5f c8 6e 3e 88 8f 93 3e
       0.22965445 0.11932514 0.23318623 0.28820443
000270 6b d6 72 3e 8a a3 c4 3c 78 80 7f be 44 7e e0 3d
       0.23714606 0.024003763 -0.2495135 0.10961583
000280 f1 ec 97 be c2 35 b1 be 41 f0 2d 3e 10 90 2f 3e
       -0.2967296 -0.34611326 0.16986181 0.17144799
000290 c2 2e 5f be 4d 69 28 3e 51 72 6e bc ed 8b a4 be
       -0.2179518 0.16446419 -0.014553622 -0.32138005
0002a0 fc 94 ae 3d 40 ab a8 be 22 0a 4c bf 4a 00 a5 be
       0.0852451 -0.32943153 -0.7970296 -0.32226783
0002b0 3e 68 02 ba d7 07 6a 3d 98 ad 55 be 8d 65 20 3e
       -0.000497464 0.057136383 -0.20867002 0.15663739
0002c0 15 be b9 bd 02 17 f4 bd aa 98 75 3e e5 0f 8b 3e
       -0.090694584 -0.11918451 0.23984018 0.27160564
0002d0 e2 66 f8 3e c5 93 60 3e 41 6e 30 3e 1a ec e7 3d
       0.48515993 0.2193137 0.17229559 0.1132433
0002e0 05 68 86 be 3d 5d a1 be da a0 0c 3e 17 06 b0 bd
       -0.26251236 -0.31516448 0.13733235 -0.085949115
0002f0 e0 f9 ae be 2a dd b1 be 49 36 0b bc 61 b5 27 3e
       -0.34175014 -0.34739047 -0.008496829 0.16377784
000300 b5 ed 82 be 10 0b 05 3e fb cf e0 3d 1a 3f 19 be
       -0.2557198 0.12992501 0.10977169 -0.14965478
000310 7f 1c 52 3e 03 4d 42 3e 83 96 46 3d 20 71 64 bd
       0.20518683 0.1897469 0.048483383 -0.055771947
000320 af 75 11 bf dd fd 31 3e 4f ca 24 3e 8b c7 35 be
       -0.56820196 0.17381997 0.160928 -0.17751901
000330 2c 50 88 3e 55 d6 83 3e 68 4d 11 3d 2a 23 0e 3f
       0.26623666 0.2574946 0.03547421 0.55522406
000340 63 f6 c2 bc 28 8d 83 3c ae 1c 33 3e e9 60 9e be
       -0.023799127 0.01605852 0.17491409 -0.30933312
000350 3f 2b 1f bd cd 19 99 bb d4 72 19 be 35 0f 33 3e
       -0.038859602 -0.004672265 -0.1498521 0.1748627
000360 7f 4a b9 3d d9 c2 35 bd 5a 13 96 be b4 76 12 3e
       0.09047412 -0.044375274 -0.2931164 0.14303094
000370 92 44 a8 bd 4d ec 0c be c0 63 36 bd 56 10 3a 3e
       -0.08216204 -0.13762017 -0.044528723 0.18170294
000380 45 20 84 3e 98 68 52 3c 5b 6f 03 bc 94 49 db 3d
       0.2580587 0.01284232 -0.008022155 0.10707393
000390 6b 69 55 bd e0 66 06 be 49 31 76 be db 05 b5 3e
       -0.052102488 -0.13125181 -0.24042238 0.3535603
0003a0 d3 1a 30 3e b9 15 8d 3e 9f 48 98 3e d0 46 72 bd
       0.17197733 0.27555636 0.29742905 -0.059149563
0003b0 e0 f0 74 bd 7f e9 b6 bd d0 e8 8e b7 3d 31 34 bc
       -0.05980003 -0.089312546 -1.703613e-05 -0.010998067
0003c0 00 62 86 3e 45 8c 36 3d 6f 5c c3 3c b3 45 73 3e
       0.26246643 0.044567365 0.023847787 0.23757057
0003d0 13 0a 1b bd 7e ba b5 be a2 e0 13 3e b8 3e 84 3c
       -0.037851404 -0.35493845 0.1444116 0.016143188
0003e0 7d 56 22 be cd 69 a0 3e f8 6f 81 bc 50 41 d1 be
       -0.15853305 0.3133072 -0.015800461 -0.40870142
0003f0 d5 b5 a6 be aa a2 95 be 0c d6 00 3e 2b f6 e6 bd
       -0.32560602 -0.29225665 0.12581652 -0.112774216

sequential_1/conv2d_3/Conv2D i1 [64, 3, 3, 32] scale=0.010142712 zero_point=0
000000 01 ff f7 01 03 07 f8 06 06 01 04 fe fc fe 01 fb
       0.010142712 -0.010142712 -0.09128441 0.010142712 0.030428136 0.07099898 -0.081141695 0.06085627 0.06085627 0.010142712 0.040570848 -0.020285424 -0.040570848 -0.020285424 0.010142712 -0.05071356
000010 fb f8 ff f9 fa 02 00 ff 03 00 fb 00 06 fa 05 03
       -0.05071356 -0.081141695 -0.010142712 -0.07099898 -0.06085627 0.020285424 0.0 -0.010142712 0.030428136 0.0 -0.05071356 0.0 0.06085627 -0.06085627 0.05071356 0.030428136
000020 fb 01 00 02 fe f8 05 fb 07 02 f7 04 f8 03 fe f8
       -0.05071356 0.010142712 0.0 0.020285424 -0.020285424 -0.081141695 0.05071356 -0.05071356 0.07099898 0.020285424 -0.09128441 0.040570848 -0.081141695 0.030428136 -0.020285424 -0.081141695
000030 fc fd fa fa fc 05 04 01 f7 04 06 03 07 fc f9 fe
       -0.040570848 -0.030428136 -0.06085627 -0.06085627 -0.040570848 0.05071356 0.040570848 0.010142712 -0.09128441 0.040570848 0.06085627 0.030428136 0.07099898 -0.040570848 -0.07099898 -0.020285424
000040 06 f8 03 fe fd 07 02 fd 06 01 05 05 fb 00 05 f8
       0.06085627 -0.081141695 0.030428136 -0.020285424 -0.030428136 0.07099898 0.020285424 -0.030428136 0.06085627 0.010142712 0.05071356 0.05071356 -0.05071356 0.0 0.05071356 -0.081141695
000050 fd f8 fb f9 f8 f7 fd 02 02 f9 05 02 ff ff fe 05
       -0.030428136 -0.081141695 -0.05071356 -0.07099898 -0.081141695 -0.09128441 -0.030428136 0.020285424 0.020285424 -0.07099898 0.05071356 0.020285424 -0.010142712 -0.010142712 -0.020285424 0.05071356
000060 fc f9 02 04 f9 03 03 04 f6 f8 00 fc fb fd fc f6
       -0.040570848 -0.07099898 0.020285424 0.040570848 -0.07099898 0.030428136 0.030428136 0.040570848 -0.10142712 -0.081141695 0.0 -0.040570848 -0.05071356 -0.030428136 -0.040570848 -0.10142712
000070 fd 01 fe f8 05 ff f9 04 00 ff 06 f7 02 fe 01 06
       -0.030428136 0.010142712 -0.020285424 -0.081141695 0.05071356 -0.010142712 -0.07099898 0.040570848 0.0 -0.010142712 0.06085627 -0.09128441 0.020285424 -0.020285424 0.010142712 0.06085627
000080 fd 03 fb ff 07 fc 06 fe fa fa ff 07 f9 02 fd 03
       -0.030428136 0.030428136 -0.05071356 -0.010142712 0.07099898 -0.040570848 0.06085627 -0.020285424 -0.06085627 -0.06085627 -0.010142712 0.07099898 -0.07099898 0.020285424 -0.030428136 0.030428136
000090 f7 f8 f8 04 f8 04 05 f8 02 01 fe fb 02 03 fc fc
       -0.09128441 -0.081141695 -0.081141695 0.040570848 -0.081141695 0.040570848 0.05071356 -0.081141695 0.020285424 0.010142712 -0.020285424 -0.05071356 0.020285424 0.030428136 -0.040570848 -0.040570848
0000a0 fa fe fe fb f8 fc fc ff f9 fd 06 fb fc 03 fa 00
       -0.06085627 -0.020285424 -0.020285424 -0.05071356 -0.081141695 -0.040570848 -0.040570848 -0.010142712 -0.07099898 -0.030428136 0.06085627 -0.05071356 -0.040570848 0.030428136 -0.06085627 0.0
0000b0 f9 01 04 06 06 04 fa f8 fe 01 01 03 01 03 f9 f8
       -0.07099898 0.010142712 0.040570848 0.06085627 0.06085627 0.040570848 -0.06085627 -0.081141695 -0.020285424 0.010142712 0.010142712 0.030428136 0.010142712 0.030428136 -0.07099898 -0.081141695
0000c0 00 05 fa 04 04 06 01 03 fc fd fc 04 ff 07 fb f9
       0.0 0.05071356 -0.06085627 0.040570848 0.040570848 0.06085627 0.010142712 0.030428136 -0.040570848 -0.030428136 -0.040570848 0.040570848 -0.010142712 0.07099898 -0.05071356 -0.07099898
0000d0 fa fc 05 06 03 00 ff 03 f8 05 02 02 fb 03 fe 02
       -0.06085627 -0.040570848 0.05071356 0.06085627 0.030428136 0.0 -0.010142712 0.030428136 -0.081141695 0.05071356 0.020285424 0.020285424 -0.05071356 0.030428136 -0.020285424 0.020285424
0000e0 fa fd ff fa fe fb 01 00 01 02 03 fb ff fe 01 01
       -0.06085627 -0.030428136 -0.010142712 -0.06085627 -0.020285424 -0.05071356 0.010142712 0.0 0.010142712 0.020285424 0.030428136 -0.05071356 -0.010142712 -0.020285424 0.010142712 0.010142712
0000f0 04 05 ff fd fa 04 fe 01 00 fa 06 05 05 f7 06 06
       0.040570848 0.05071356 -0.010142712 -0.030428136 -0.06085627 0.040570848 -0.020285424 0.010142712 0.0 -0.06085627 0.06085627 0.05071356 0.05071356 -0.09128441 0.06085627 0.06085627
